…
kinetic_energy initialized : mass  1
HNN_base initialized
grids initialized : gridL  0.2 ngrid  6
phi_fields initialized : ngrids 6 dgrid 0.2  dphi maxcut  108.35
fields_HNN initialized 
my_data initialized : train_filename  ../data/gen_by_MD/train/n16rho0.1lt0.1nsamples24000_shuffle.pt  val_filename  ../data/gen_by_MD/valid/n16rho0.1lt0.1nsamples4800_shuffle.pt  test_filename  ../data/gen_by_MD/valid/n16rho0.1lt0.1nsamples4800_shuffle.pt  train_pts  24000  val_pts  4800  test_pts  4800
kwargs  {}
created  SGD  with lr  0.01
checkpoint initialized : net list  [mlp_net(
  (layers): ModuleList(
    (0): Linear(in_features=25, out_features=256, bias=True)
    (1): Tanh()
    (2): Linear(in_features=256, out_features=64, bias=True)
    (3): Tanh()
    (4): Dropout(p=0, inplace=False)
    (5): Linear(in_features=64, out_features=256, bias=True)
    (6): Tanh()
    (7): Dropout(p=0, inplace=False)
    (8): Linear(in_features=256, out_features=2, bias=True)
  )
), mlp_net(
  (layers): ModuleList(
    (0): Linear(in_features=25, out_features=256, bias=True)
    (1): Tanh()
    (2): Linear(in_features=256, out_features=64, bias=True)
    (3): Tanh()
    (4): Dropout(p=0, inplace=False)
    (5): Linear(in_features=64, out_features=256, bias=True)
    (6): Tanh()
    (7): Dropout(p=0, inplace=False)
    (8): Linear(in_features=256, out_features=2, bias=True)
  )
), mlp_net(
  (layers): ModuleList(
    (0): Linear(in_features=5, out_features=64, bias=True)
    (1): Tanh()
    (2): Linear(in_features=64, out_features=64, bias=True)
    (3): Tanh()
    (4): Dropout(p=0, inplace=False)
    (5): Linear(in_features=64, out_features=2, bias=True)
  )
), mlp_net(
  (layers): ModuleList(
    (0): Linear(in_features=5, out_features=64, bias=True)
    (1): Tanh()
    (2): Linear(in_features=64, out_features=64, bias=True)
    (3): Tanh()
    (4): Dropout(p=0, inplace=False)
    (5): Linear(in_features=64, out_features=2, bias=True)
  )
)]  opt  SGD (
Parameter Group 0
    dampening: 0
    initial_lr: 0.01
    lr: 0.01
    momentum: 0
    nesterov: False
    weight_decay: 0
) sch <torch.optim.lr_scheduler.StepLR object at 0x7f08cc545090>
MD_learner initialized : tau_cur  0.1  boxsize  12.649110640673518 pothrsh 159.5294604629323 Lambda 0.01 clip value 10.0
5 epoch: train_loss:1.066688 valid_loss:1.268344 each epoch time:25.42538
…
