…
test_pts : 10
batch_size : 200
n_chain : 1
main dict ============== 
start_epoch : 0
end_epoch : 100000
save_dir : test_dir
ckpt_interval : 1000
val_interval : 10000
verb : 10
my_data initialized : train_filename  ../data_sets/n16anyrholt10everystps_afew_nsamples30000train.pt  val_filename  ../data_sets/n16anyrholt10everystps_afew_nsamples24000valid.pt  test_filename  ../data_sets/n16anyrholt10everystps_afew_nsamples24000valid.pt  train_pts  400  val_pts  20  test_pts  10
kwargs  {} batch_size  200
pw fnn
--- initialize pw_ff ---
mb fnn
--- initialize mb ff ---
pw_neural_net(
  (layers): ModuleList(
    (0): Linear(in_features=2, out_features=256, bias=True)
    (1): Linear(in_features=256, out_features=128, bias=True)
    (2): Linear(in_features=128, out_features=256, bias=True)
    (3): Linear(in_features=256, out_features=2, bias=True)
  )
)
pw_neural_net(
  (layers): ModuleList(
    (0): Linear(in_features=3, out_features=256, bias=True)
    (1): Linear(in_features=256, out_features=128, bias=True)
    (2): Linear(in_features=128, out_features=256, bias=True)
    (3): Linear(in_features=256, out_features=2, bias=True)
  )
)
pw_neural_net(
  (layers): ModuleList(
    (0): Linear(in_features=4, out_features=256, bias=True)
    (1): Linear(in_features=256, out_features=128, bias=True)
    (2): Linear(in_features=128, out_features=256, bias=True)
    (3): Linear(in_features=256, out_features=2, bias=True)
  )
)
pw_neural_net(
  (layers): ModuleList(
    (0): Linear(in_features=5, out_features=256, bias=True)
    (1): Linear(in_features=256, out_features=128, bias=True)
    (2): Linear(in_features=128, out_features=256, bias=True)
    (3): Linear(in_features=256, out_features=2, bias=True)
  )
)
pw_neural_net(
  (layers): ModuleList(
    (0): Linear(in_features=6, out_features=256, bias=True)
    (1): Linear(in_features=256, out_features=128, bias=True)
    (2): Linear(in_features=128, out_features=256, bias=True)
    (3): Linear(in_features=256, out_features=2, bias=True)
  )
)
pw_neural_net(
  (layers): ModuleList(
    (0): Linear(in_features=7, out_features=256, bias=True)
    (1): Linear(in_features=256, out_features=128, bias=True)
    (2): Linear(in_features=128, out_features=256, bias=True)
    (3): Linear(in_features=256, out_features=2, bias=True)
  )
)
mb_neural_net(
  (layers): ModuleList(
    (0): Linear(in_features=24, out_features=256, bias=True)
    (1): Linear(in_features=256, out_features=128, bias=True)
    (2): Linear(in_features=128, out_features=256, bias=True)
    (3): Linear(in_features=256, out_features=256, bias=True)
    (4): Linear(in_features=256, out_features=2, bias=True)
  )
)
mb_neural_net(
  (layers): ModuleList(
    (0): Linear(in_features=36, out_features=256, bias=True)
    (1): Linear(in_features=256, out_features=128, bias=True)
    (2): Linear(in_features=128, out_features=256, bias=True)
    (3): Linear(in_features=256, out_features=256, bias=True)
    (4): Linear(in_features=256, out_features=2, bias=True)
  )
)
mb_neural_net(
  (layers): ModuleList(
    (0): Linear(in_features=48, out_features=256, bias=True)
    (1): Linear(in_features=256, out_features=128, bias=True)
    (2): Linear(in_features=128, out_features=256, bias=True)
    (3): Linear(in_features=256, out_features=256, bias=True)
    (4): Linear(in_features=256, out_features=2, bias=True)
  )
)
mb_neural_net(
  (layers): ModuleList(
    (0): Linear(in_features=60, out_features=256, bias=True)
    (1): Linear(in_features=256, out_features=128, bias=True)
    (2): Linear(in_features=128, out_features=256, bias=True)
    (3): Linear(in_features=256, out_features=256, bias=True)
    (4): Linear(in_features=256, out_features=2, bias=True)
  )
)
mb_neural_net(
  (layers): ModuleList(
    (0): Linear(in_features=72, out_features=256, bias=True)
    (1): Linear(in_features=256, out_features=128, bias=True)
    (2): Linear(in_features=128, out_features=256, bias=True)
    (3): Linear(in_features=256, out_features=256, bias=True)
    (4): Linear(in_features=256, out_features=2, bias=True)
  )
)
mb_neural_net(
  (layers): ModuleList(
    (0): Linear(in_features=84, out_features=256, bias=True)
    (1): Linear(in_features=256, out_features=128, bias=True)
    (2): Linear(in_features=128, out_features=256, bias=True)
    (3): Linear(in_features=256, out_features=256, bias=True)
    (4): Linear(in_features=256, out_features=2, bias=True)
  )
)
pw_neural_net(
  (layers): ModuleList(
    (0): Linear(in_features=2, out_features=256, bias=True)
    (1): Linear(in_features=256, out_features=128, bias=True)
    (2): Linear(in_features=128, out_features=256, bias=True)
    (3): Linear(in_features=256, out_features=2, bias=True)
  )
)
pw_neural_net(
  (layers): ModuleList(
    (0): Linear(in_features=2, out_features=256, bias=True)
    (1): Linear(in_features=256, out_features=128, bias=True)
    (2): Linear(in_features=128, out_features=256, bias=True)
    (3): Linear(in_features=256, out_features=2, bias=True)
  )
)
pw_neural_net(
  (layers): ModuleList(
    (0): Linear(in_features=2, out_features=256, bias=True)
    (1): Linear(in_features=256, out_features=128, bias=True)
    (2): Linear(in_features=128, out_features=256, bias=True)
    (3): Linear(in_features=256, out_features=2, bias=True)
  )
)
state dict  {'cos_dict': {'T_0': 10, 'T_i': 10, 'T_mult': 1, 'eta_min': 0, 'base_lrs': [0.001], 'last_epoch': 0, '_step_count': 0, 'verbose': False, 'T_cur': 0, '_get_lr_called_within_step': False, '_last_lr': [0.001]}, 'thrsh': 0.001, 'cntr': 0}
checkpoint initialized : net list  [pw_neural_net(
  (layers): ModuleList(
    (0): Linear(in_features=2, out_features=256, bias=True)
    (1): Linear(in_features=256, out_features=128, bias=True)
    (2): Linear(in_features=128, out_features=256, bias=True)
    (3): Linear(in_features=256, out_features=2, bias=True)
  )
), pw_neural_net(
  (layers): ModuleList(
    (0): Linear(in_features=3, out_features=256, bias=True)
    (1): Linear(in_features=256, out_features=128, bias=True)
    (2): Linear(in_features=128, out_features=256, bias=True)
    (3): Linear(in_features=256, out_features=2, bias=True)
  )
), pw_neural_net(
  (layers): ModuleList(
    (0): Linear(in_features=4, out_features=256, bias=True)
    (1): Linear(in_features=256, out_features=128, bias=True)
    (2): Linear(in_features=128, out_features=256, bias=True)
    (3): Linear(in_features=256, out_features=2, bias=True)
  )
), pw_neural_net(
  (layers): ModuleList(
    (0): Linear(in_features=5, out_features=256, bias=True)
    (1): Linear(in_features=256, out_features=128, bias=True)
    (2): Linear(in_features=128, out_features=256, bias=True)
    (3): Linear(in_features=256, out_features=2, bias=True)
  )
), pw_neural_net(
  (layers): ModuleList(
    (0): Linear(in_features=6, out_features=256, bias=True)
    (1): Linear(in_features=256, out_features=128, bias=True)
    (2): Linear(in_features=128, out_features=256, bias=True)
    (3): Linear(in_features=256, out_features=2, bias=True)
  )
), pw_neural_net(
  (layers): ModuleList(
    (0): Linear(in_features=7, out_features=256, bias=True)
    (1): Linear(in_features=256, out_features=128, bias=True)
    (2): Linear(in_features=128, out_features=256, bias=True)
    (3): Linear(in_features=256, out_features=2, bias=True)
  )
), mb_neural_net(
  (layers): ModuleList(
    (0): Linear(in_features=24, out_features=256, bias=True)
    (1): Linear(in_features=256, out_features=128, bias=True)
    (2): Linear(in_features=128, out_features=256, bias=True)
    (3): Linear(in_features=256, out_features=256, bias=True)
    (4): Linear(in_features=256, out_features=2, bias=True)
  )
), mb_neural_net(
  (layers): ModuleList(
    (0): Linear(in_features=36, out_features=256, bias=True)
    (1): Linear(in_features=256, out_features=128, bias=True)
    (2): Linear(in_features=128, out_features=256, bias=True)
    (3): Linear(in_features=256, out_features=256, bias=True)
    (4): Linear(in_features=256, out_features=2, bias=True)
  )
), mb_neural_net(
  (layers): ModuleList(
    (0): Linear(in_features=48, out_features=256, bias=True)
    (1): Linear(in_features=256, out_features=128, bias=True)
    (2): Linear(in_features=128, out_features=256, bias=True)
    (3): Linear(in_features=256, out_features=256, bias=True)
    (4): Linear(in_features=256, out_features=2, bias=True)
  )
), mb_neural_net(
  (layers): ModuleList(
    (0): Linear(in_features=60, out_features=256, bias=True)
    (1): Linear(in_features=256, out_features=128, bias=True)
    (2): Linear(in_features=128, out_features=256, bias=True)
    (3): Linear(in_features=256, out_features=256, bias=True)
    (4): Linear(in_features=256, out_features=2, bias=True)
  )
), mb_neural_net(
  (layers): ModuleList(
    (0): Linear(in_features=72, out_features=256, bias=True)
    (1): Linear(in_features=256, out_features=128, bias=True)
    (2): Linear(in_features=128, out_features=256, bias=True)
    (3): Linear(in_features=256, out_features=256, bias=True)
    (4): Linear(in_features=256, out_features=2, bias=True)
  )
), mb_neural_net(
  (layers): ModuleList(
    (0): Linear(in_features=84, out_features=256, bias=True)
    (1): Linear(in_features=256, out_features=128, bias=True)
    (2): Linear(in_features=128, out_features=256, bias=True)
    (3): Linear(in_features=256, out_features=256, bias=True)
    (4): Linear(in_features=256, out_features=2, bias=True)
  )
), pw_neural_net(
  (layers): ModuleList(
    (0): Linear(in_features=2, out_features=256, bias=True)
    (1): Linear(in_features=256, out_features=128, bias=True)
    (2): Linear(in_features=128, out_features=256, bias=True)
    (3): Linear(in_features=256, out_features=2, bias=True)
  )
), pw_neural_net(
  (layers): ModuleList(
    (0): Linear(in_features=2, out_features=256, bias=True)
    (1): Linear(in_features=256, out_features=128, bias=True)
    (2): Linear(in_features=128, out_features=256, bias=True)
    (3): Linear(in_features=256, out_features=2, bias=True)
  )
), pw_neural_net(
  (layers): ModuleList(
    (0): Linear(in_features=2, out_features=256, bias=True)
    (1): Linear(in_features=256, out_features=128, bias=True)
    (2): Linear(in_features=128, out_features=256, bias=True)
    (3): Linear(in_features=256, out_features=2, bias=True)
  )
)]  opt  SGD (
Parameter Group 0
    dampening: 0
    initial_lr: 0.001
    lr: 0.001
    momentum: 0
    nesterov: False
    weight_decay: 0
)  opt2  SGD (
Parameter Group 0
    dampening: 0
    lr: 0.01
    momentum: 0
    nesterov: False
    weight_decay: 0
) sch <optimizers.DecayCosineAnnealingWarmRestarts.DecayCosineAnnealingWarmRestarts object at 0x7ff38f232fd0>
…
