…
128 0.025 0.47 window sliding step 12 g
128 0.025 0.47 window sliding step 16 g
device singleton constructed for  cuda
pid :  20941
uname :  uname_result(system='Linux', node='x1000c0s1b0n0', release='4.18.0-305.25.1.el8_4.x86_64', version='#1 SMP Mon Oct 18 14:34:11 EDT 2021', machine='x86_64')
code run start time  20230423, 20:08:54
device singleton constructed for  cuda
nsteps  198 label idx 15 t thrsh  198
 velocity verlet MD
 check force .....
load data init file :  torch.Size([50, 3, 8, 128, 2])
pw fnn
--- initialize pw_ff ---
mb fnn
--- initialize mb ff mlp ---
pw_mlp_net(
  (layers): ModuleList(
    (0): Linear(in_features=16, out_features=128, bias=True)
    (1): Linear(in_features=128, out_features=128, bias=True)
    (2): Linear(in_features=128, out_features=128, bias=True)
    (3): Linear(in_features=128, out_features=128, bias=True)
    (4): Linear(in_features=128, out_features=2, bias=True)
  )
)
pw_mlp_net(
  (layers): ModuleList(
    (0): Linear(in_features=16, out_features=128, bias=True)
    (1): Linear(in_features=128, out_features=128, bias=True)
    (2): Linear(in_features=128, out_features=128, bias=True)
    (3): Linear(in_features=128, out_features=128, bias=True)
    (4): Linear(in_features=128, out_features=2, bias=True)
  )
)
mb_transformer_net(
  (feat_embedder): Linear(in_features=24, out_features=256, bias=True)
  (transformer): Sequential(
    (0): EncoderLayer(
      (norm1): LayerNorm((256,), eps=1e-05, elementwise_affine=True)
      (attn): MultiheadAttention(
        (qkv): Linear(in_features=256, out_features=768, bias=False)
        (q_norm): Identity()
        (k_norm): Identity()
        (attn_drop): Dropout(p=0.5, inplace=False)
        (proj): Linear(in_features=256, out_features=256, bias=True)
        (proj_drop): Dropout(p=0.5, inplace=False)
      )
      (norm2): LayerNorm((256,), eps=1e-05, elementwise_affine=True)
      (mlp): Sequential(
        (0): Linear(in_features=256, out_features=1024, bias=True)
        (1): GELU()
        (2): Dropout(p=0.5, inplace=False)
        (3): Linear(in_features=1024, out_features=256, bias=True)
        (4): GELU()
        (5): Dropout(p=0.5, inplace=False)
      )
    )
    (1): EncoderLayer(
      (norm1): LayerNorm((256,), eps=1e-05, elementwise_affine=True)
      (attn): MultiheadAttention(
        (qkv): Linear(in_features=256, out_features=768, bias=False)
        (q_norm): Identity()
        (k_norm): Identity()
        (attn_drop): Dropout(p=0.5, inplace=False)
        (proj): Linear(in_features=256, out_features=256, bias=True)
        (proj_drop): Dropout(p=0.5, inplace=False)
      )
      (norm2): LayerNorm((256,), eps=1e-05, elementwise_affine=True)
      (mlp): Sequential(
        (0): Linear(in_features=256, out_features=1024, bias=True)
        (1): GELU()
        (2): Dropout(p=0.5, inplace=False)
        (3): Linear(in_features=1024, out_features=256, bias=True)
        (4): GELU()
        (5): Dropout(p=0.5, inplace=False)
      )
    )
  )
  (readout): Linear(in_features=256, out_features=2, bias=True)
)
mb_transformer_net(
  (feat_embedder): Linear(in_features=24, out_features=256, bias=True)
  (transformer): Sequential(
    (0): EncoderLayer(
      (norm1): LayerNorm((256,), eps=1e-05, elementwise_affine=True)
      (attn): MultiheadAttention(
        (qkv): Linear(in_features=256, out_features=768, bias=False)
        (q_norm): Identity()
        (k_norm): Identity()
        (attn_drop): Dropout(p=0.5, inplace=False)
        (proj): Linear(in_features=256, out_features=256, bias=True)
        (proj_drop): Dropout(p=0.5, inplace=False)
      )
      (norm2): LayerNorm((256,), eps=1e-05, elementwise_affine=True)
      (mlp): Sequential(
        (0): Linear(in_features=256, out_features=1024, bias=True)
        (1): GELU()
        (2): Dropout(p=0.5, inplace=False)
        (3): Linear(in_features=1024, out_features=256, bias=True)
        (4): GELU()
        (5): Dropout(p=0.5, inplace=False)
      )
    )
    (1): EncoderLayer(
      (norm1): LayerNorm((256,), eps=1e-05, elementwise_affine=True)
      (attn): MultiheadAttention(
        (qkv): Linear(in_features=256, out_features=768, bias=False)
        (q_norm): Identity()
        (k_norm): Identity()
        (attn_drop): Dropout(p=0.5, inplace=False)
        (proj): Linear(in_features=256, out_features=256, bias=True)
        (proj_drop): Dropout(p=0.5, inplace=False)
      )
      (norm2): LayerNorm((256,), eps=1e-05, elementwise_affine=True)
      (mlp): Sequential(
        (0): Linear(in_features=256, out_features=1024, bias=True)
        (1): GELU()
        (2): Dropout(p=0.5, inplace=False)
        (3): Linear(in_features=1024, out_features=256, bias=True)
        (4): GELU()
        (5): Dropout(p=0.5, inplace=False)
      )
    )
  )
  (readout): Linear(in_features=256, out_features=2, bias=True)
)
pw_mlp_net(
  (layers): ModuleList(
    (0): Linear(in_features=2, out_features=128, bias=True)
    (1): Linear(in_features=128, out_features=128, bias=True)
    (2): Linear(in_features=128, out_features=128, bias=True)
    (3): Linear(in_features=128, out_features=128, bias=True)
    (4): Linear(in_features=128, out_features=2, bias=True)
  )
)
 velocity verletx 
state dict  {'cos_dict': {'T_0': 1, 'T_i': 1, 'T_mult': 1, 'eta_min': 0, 'T_cur': 0, 'base_lrs': [1e-05], 'last_epoch': 0, '_step_count': 0, 'verbose': False, '_get_lr_called_within_step': False, '_last_lr': [1e-05]}, 'thrsh': 1e-05, 'cntr': 0}
loss initialized: rthrsh 0.7 pethrsh 288.990 e weight 1 reg weight 10 reg weight2 0.01
checkpoint initialized : net list  device singleton constructed for  cuda
pid :  20942
uname :  uname_result(system='Linux', node='x1000c0s1b0n0', release='4.18.0-305.25.1.el8_4.x86_64', version='#1 SMP Mon Oct 18 14:34:11 EDT 2021', machine='x86_64')
code run start time  20230423, 20:08:54
device singleton constructed for  cuda
nsteps  198 label idx 19 t thrsh  198
 velocity verlet MD
 check force .....
load data init file :  torch.Size([50, 3, 8, 128, 2])
pw fnn
--- initialize pw_ff ---
mb fnn
--- initialize mb ff mlp ---
pw_mlp_net(
  (layers): ModuleList(
    (0): Linear(in_features=16, out_features=128, bias=True)
    (1): Linear(in_features=128, out_features=128, bias=True)
    (2): Linear(in_features=128, out_features=128, bias=True)
    (3): Linear(in_features=128, out_features=128, bias=True)
    (4): Linear(in_features=128, out_features=2, bias=True)
  )
)
pw_mlp_net(
  (layers): ModuleList(
    (0): Linear(in_features=16, out_features=128, bias=True)
    (1): Linear(in_features=128, out_features=128, bias=True)
    (2): Linear(in_features=128, out_features=128, bias=True)
    (3): Linear(in_features=128, out_features=128, bias=True)
    (4): Linear(in_features=128, out_features=2, bias=True)
  )
)
mb_transformer_net(
  (feat_embedder): Linear(in_features=24, out_features=256, bias=True)
  (transformer): Sequential(
    (0): EncoderLayer(
      (norm1): LayerNorm((256,), eps=1e-05, elementwise_affine=True)
      (attn): MultiheadAttention(
        (qkv): Linear(in_features=256, out_features=768, bias=False)
        (q_norm): Identity()
        (k_norm): Identity()
        (attn_drop): Dropout(p=0.5, inplace=False)
        (proj): Linear(in_features=256, out_features=256, bias=True)
        (proj_drop): Dropout(p=0.5, inplace=False)
      )
      (norm2): LayerNorm((256,), eps=1e-05, elementwise_affine=True)
      (mlp): Sequential(
        (0): Linear(in_features=256, out_features=1024, bias=True)
        (1): GELU()
        (2): Dropout(p=0.5, inplace=False)
        (3): Linear(in_features=1024, out_features=256, bias=True)
        (4): GELU()
        (5): Dropout(p=0.5, inplace=False)
      )
    )
    (1): EncoderLayer(
      (norm1): LayerNorm((256,), eps=1e-05, elementwise_affine=True)
      (attn): MultiheadAttention(
        (qkv): Linear(in_features=256, out_features=768, bias=False)
        (q_norm): Identity()
        (k_norm): Identity()
        (attn_drop): Dropout(p=0.5, inplace=False)
        (proj): Linear(in_features=256, out_features=256, bias=True)
        (proj_drop): Dropout(p=0.5, inplace=False)
      )
      (norm2): LayerNorm((256,), eps=1e-05, elementwise_affine=True)
      (mlp): Sequential(
        (0): Linear(in_features=256, out_features=1024, bias=True)
        (1): GELU()
        (2): Dropout(p=0.5, inplace=False)
        (3): Linear(in_features=1024, out_features=256, bias=True)
        (4): GELU()
        (5): Dropout(p=0.5, inplace=False)
      )
    )
  )
  (readout): Linear(in_features=256, out_features=2, bias=True)
)
mb_transformer_net(
  (feat_embedder): Linear(in_features=24, out_features=256, bias=True)
  (transformer): Sequential(
    (0): EncoderLayer(
      (norm1): LayerNorm((256,), eps=1e-05, elementwise_affine=True)
      (attn): MultiheadAttention(
        (qkv): Linear(in_features=256, out_features=768, bias=False)
        (q_norm): Identity()
        (k_norm): Identity()
        (attn_drop): Dropout(p=0.5, inplace=False)
        (proj): Linear(in_features=256, out_features=256, bias=True)
        (proj_drop): Dropout(p=0.5, inplace=False)
      )
      (norm2): LayerNorm((256,), eps=1e-05, elementwise_affine=True)
      (mlp): Sequential(
        (0): Linear(in_features=256, out_features=1024, bias=True)
        (1): GELU()
        (2): Dropout(p=0.5, inplace=False)
        (3): Linear(in_features=1024, out_features=256, bias=True)
        (4): GELU()
        (5): Dropout(p=0.5, inplace=False)
      )
    )
    (1): EncoderLayer(
      (norm1): LayerNorm((256,), eps=1e-05, elementwise_affine=True)
      (attn): MultiheadAttention(
        (qkv): Linear(in_features=256, out_features=768, bias=False)
        (q_norm): Identity()
        (k_norm): Identity()
        (attn_drop): Dropout(p=0.5, inplace=False)
        (proj): Linear(in_features=256, out_features=256, bias=True)
        (proj_drop): Dropout(p=0.5, inplace=False)
      )
      (norm2): LayerNorm((256,), eps=1e-05, elementwise_affine=True)
      (mlp): Sequential(
        (0): Linear(in_features=256, out_features=1024, bias=True)
        (1): GELU()
        (2): Dropout(p=0.5, inplace=False)
        (3): Linear(in_features=1024, out_features=256, bias=True)
        (4): GELU()
        (5): Dropout(p=0.5, inplace=False)
      )
    )
  )
  (readout): Linear(in_features=256, out_features=2, bias=True)
)
pw_mlp_net(
  (layers): ModuleList(
    (0): Linear(in_features=2, out_features=128, bias=True)
    (1): Linear(in_features=128, out_features=128, bias=True)
    (2): Linear(in_features=128, out_features=128, bias=True)
    (3): Linear(in_features=128, out_features=128, bias=True)
    (4): Linear(in_features=128, out_features=2, bias=True)
  )
)
 velocity verletx 
state dict  {'cos_dict': {'T_0': 1, 'T_i': 1, 'T_mult': 1, 'eta_min': 0, 'T_cur': 0, 'base_lrs': [1e-05], 'last_epoch': 0, '_step_count': 0, 'verbose': False, '_get_lr_called_within_step': False, '_last_lr': [1e-05]}, 'thrsh': 1e-05, 'cntr': 0}
loss initialized: rthrsh 0.7 pethrsh 288.990 e weight 1 reg weight 10 reg weight2 0.01
checkpoint initialized : net list  [pw_mlp_net(
  (layers): ModuleList(
    (0): Linear(in_features=16, out_features=128, bias=True)
    (1): Linear(in_features=128, out_features=128, bias=True)
    (2): Linear(in_features=128, out_features=128, bias=True)
    (3): Linear(in_features=128, out_features=128, bias=True)
    (4): Linear(in_features=128, out_features=2, bias=True)
  )
), pw_mlp_net(
  (layers): ModuleList(
    (0): Linear(in_features=16, out_features=128, bias=True)
    (1): Linear(in_features=128, out_features=128, bias=True)
    (2): Linear(in_features=128, out_features=128, bias=True)
    (3): Linear(in_features=128, out_features=128, bias=True)
    (4): Linear(in_features=128, out_features=2, bias=True)
  )
), mb_transformer_net(
  (feat_embedder): Linear(in_features=24, out_features=256, bias=True)
  (transformer): Sequential(
    (0): EncoderLayer(
      (norm1): LayerNorm((256,), eps=1e-05, elementwise_affine=True)
      (attn): MultiheadAttention(
        (qkv): Linear(in_features=256, out_features=768, bias=False)
        (q_norm): Identity()
        (k_norm): Identity()
        (attn_drop): Dropout(p=0.5, inplace=False)
        (proj): Linear(in_features=256, out_features=256, bias=True)
        (proj_drop): Dropout(p=0.5, inplace=False)
      )
      (norm2): LayerNorm((256,), eps=1e-05, elementwise_affine=True)
      (mlp): Sequential(
        (0): Linear(in_features=256, out_features=1024, bias=True)
        (1): GELU()
        (2): Dropout(p=0.5, inplace=False)
        (3): Linear(in_features=1024, out_features=256, bias=True)
        (4): GELU()
        (5): Dropout(p=0.5, inplace=False)
      )
    )
    (1): EncoderLayer(
      (norm1): LayerNorm((256,), eps=1e-05, elementwise_affine=True)
      (attn): MultiheadAttention(
        (qkv): Linear(in_features=256, out_features=768, bias=False)
        (q_norm): Identity()
        (k_norm): Identity()
        (attn_drop): Dropout(p=0.5, inplace=False)
        (proj): Linear(in_features=256, out_features=256, bias=True)
        (proj_drop): Dropout(p=0.5, inplace=False)
      )
      (norm2): LayerNorm((256,), eps=1e-05, elementwise_affine=True)
      (mlp): Sequential(
        (0): Linear(in_features=256, out_features=1024, bias=True)
        (1): GELU()
        (2): Dropout(p=0.5, inplace=False)
        (3): Linear(in_features=1024, out_features=256, bias=True)
        (4): GELU()
        (5): Dropout(p=0.5, inplace=False)
      )
    )
  )
  (readout): Linear(in_features=256, out_features=2, bias=True)
), mb_transformer_net(
  (feat_embedder): Linear(in_features=24, out_features=256, bias=True)
  (transformer): Sequential(
    (0): EncoderLayer(
      (norm1): LayerNorm((256,), eps=1e-05, elementwise_affine=True)
      (attn): MultiheadAttention(
        (qkv): Linear(in_features=256, out_features=768, bias=False)
        (q_norm): Identity()
        (k_norm): Identity()
        (attn_drop): Dropout(p=0.5, inplace=False)
        (proj): Linear(in_features=256, out_features=256, bias=True)
        (proj_drop): Dropout(p=0.5, inplace=False)
      )
      (norm2): LayerNorm((256,), eps=1e-05, elementwise_affine=True)
      (mlp): Sequential(
        (0): Linear(in_features=256, out_features=1024, bias=True)
        (1): GELU()
        (2): Dropout(p=0.5, inplace=False)
        (3): Linear(in_features=1024, out_features=256, bias=True)
        (4): GELU()
        (5): Dropout(p=0.5, inplace=False)
      )
    )
    (1): EncoderLayer(
      (norm1): LayerNorm((256,), eps=1e-05, elementwise_affine=True)
      (attn): MultiheadAttention(
        (qkv): Linear(in_features=256, out_features=768, bias=False)
        (q_norm): Identity()
        (k_norm): Identity()
        (attn_drop): Dropout(p=0.5, inplace=False)
        (proj): Linear(in_features=256, out_features=256, bias=True)
        (proj_drop): Dropout(p=0.5, inplace=False)
      )
      (norm2): LayerNorm((256,), eps=1e-05, elementwise_affine=True)
      (mlp): Sequential(
        (0): Linear(in_features=256, out_features=1024, bias=True)
        (1): GELU()
        (2): Dropout(p=0.5, inplace=False)
        (3): Linear(in_features=1024, out_features=256, bias=True)
        (4): GELU()
        (5): Dropout(p=0.5, inplace=False)
      )
    )
  )
  (readout): Linear(in_features=256, out_features=2, bias=True)
), pw_mlp_net(
  (layers): ModuleList(
    (0): Linear(in_features=2, out_features=128, bias=True)
    (1): Linear(in_features=128, out_features=128, bias=True)
    (2): Linear(in_features=128, out_features=128, bias=True)
    (3): Linear(in_features=128, out_features=128, bias=True)
    (4): Linear(in_features=128, out_features=2, bias=True)
  )
)] tau list len 2  opt  SGD (
Parameter Group 0
    dampening: 0
    initial_lr: 1e-05
    lr: 1e-05
    maximize: False
    momentum: 0
    nesterov: False
    weight_decay: 0
)  opt2  SGD (
Parameter Group 0
    dampening: 0
    lr: 0.01
    maximize: False
    momentum: 0
    nesterov: False
    weight_decay: 0
) sch <optimizers.DecayCosineAnnealingWarmRestarts.DecayCosineAnnealingWarmRestarts object at 0x148596285b10>
=> loading checkpoint '../../results20230409/traj_len08nchain08tau0.1d256l2ew01repw10_dpt1800000/mbpw000097.pth'
{'net_list': [pw_mlp_net(
  (layers): ModuleList(
    (0): Linear(in_features=16, out_features=128, bias=True)
    (1): Linear(in_features=128, out_features=128, bias=True)
    (2): Linear(in_features=128, out_features=128, bias=True)
    (3): Linear(in_features=128, out_features=128, bias=True)
    (4): Linear(in_features=128, out_features=2, bias=True)
  )
), pw_mlp_net(
  (layers): ModuleList(
    (0): Linear(in_features=16, out_features=128, bias=True)
    (1): Linear(in_features=128, out_features=128, bias=True)
    (2): Linear(in_features=128, out_features=128, bias=True)
    (3): Linear(in_features=128, out_features=128, bias=True)
    (4): Linear(in_features=128, out_features=2, bias=True)
  )
), mb_transformer_net(
  (feat_embedder): Linear(in_features=24, out_features=256, bias=True)
  (transformer): Sequential(
    (0): EncoderLayer(
      (norm1): LayerNorm((256,), eps=1e-05, elementwise_affine=True)
      (attn): MultiheadAttention(
        (qkv): Linear(in_features=256, out_features=768, bias=False)
        (q_norm): Identity()
        (k_norm): Identity()
        (attn_drop): Dropout(p=0.5, inplace=False)
        (proj): Linear(in_features=256, out_features=256, bias=True)
        (proj_drop): Dropout(p=0.5, inplace=False)
      )
      (norm2): LayerNorm((256,), eps=1e-05, elementwise_affine=True)
      (mlp): Sequential(
        (0): Linear(in_features=256, out_features=1024, bias=True)
        (1): GELU()
        (2): Dropout(p=0.5, inplace=False)
        (3): Linear(in_features=1024, out_features=256, bias=True)
        (4): GELU()
        (5): Dropout(p=0.5, inplace=False)
      )
    )
    (1): EncoderLayer(
      (norm1): LayerNorm((256,), eps=1e-05, elementwise_affine=True)
      (attn): MultiheadAttention(
        (qkv): Linear(in_features=256, out_features=768, bias=False)
        (q_norm): Identity()
        (k_norm): Identity()
        (attn_drop): Dropout(p=0.5, inplace=False)
        (proj): Linear(in_features=256, out_features=256, bias=True)
        (proj_drop): Dropout(p=0.5, inplace=False)
      )
      (norm2): LayerNorm((256,), eps=1e-05, elementwise_affine=True)
      (mlp): Sequential(
        (0): Linear(in_features=256, out_features=1024, bias=True)
        (1): GELU()
        (2): Dropout(p=0.5, inplace=False)
        (3): Linear(in_features=1024, out_features=256, bias=True)
        (4): GELU()
        (5): Dropout(p=0.5, inplace=False)
      )
    )
  )
  (readout): Linear(in_features=256, out_features=2, bias=True)
), mb_transformer_net(
  (feat_embedder): Linear(in_features=24, out_features=256, bias=True)
  (transformer): Sequential(
    (0): EncoderLayer(
      (norm1): LayerNorm((256,), eps=1e-05, elementwise_affine=True)
      (attn): MultiheadAttention(
        (qkv): Linear(in_features=256, out_features=768, bias=False)
        (q_norm): Identity()
        (k_norm): Identity()
        (attn_drop): Dropout(p=0.5, inplace=False)
        (proj): Linear(in_features=256, out_features=256, bias=True)
        (proj_drop): Dropout(p=0.5, inplace=False)
      )
      (norm2): LayerNorm((256,), eps=1e-05, elementwise_affine=True)
      (mlp): Sequential(
        (0): Linear(in_features=256, out_features=1024, bias=True)
        (1): GELU()
        (2): Dropout(p=0.5, inplace=False)
        (3): Linear(in_features=1024, out_features=256, bias=True)
        (4): GELU()
        (5): Dropout(p=0.5, inplace=False)
      )
    )
    (1): EncoderLayer(
      (norm1): LayerNorm((256,), eps=1e-05, elementwise_affine=True)
      (attn): MultiheadAttention(
        (qkv): Linear(in_features=256, out_features=768, bias=False)
        (q_norm): Identity()
        (k_norm): Identity()
        (attn_drop): Dropout(p=0.5, inplace=False)
        (proj): Linear(in_features=256, out_features=256, bias=True)
        (proj_drop): Dropout(p=0.5, inplace=False)
      )
      (norm2): LayerNorm((256,), eps=1e-05, elementwise_affine=True)
      (mlp): Sequential(
        (0): Linear(in_features=256, out_features=1024, bias=True)
        (1): GELU()
        (2): Dropout(p=0.5, inplace=False)
        (3): Linear(in_features=1024, out_features=256, bias=True)
        (4): GELU()
        (5): Dropout(p=0.5, inplace=False)
      )
    )
  )
  (readout): Linear(in_features=256, out_features=2, bias=True)
), pw_mlp_net(
  (layers): ModuleList(
    (0): Linear(in_features=2, out_features=128, bias=True)
    (1): Linear(in_features=128, out_features=128, bias=True)
    (2): Linear(in_features=128, out_features=128, bias=True)
    (3): Linear(in_features=128, out_features=128, bias=True)
    (4): Linear(in_features=128, out_features=2, bias=True)
  )
)], 'tau_list': [tensor([1.8453, 0.2113], device='cuda:0', requires_grad=True), tensor([-0.0032,  0.0319], device='cuda:0', requires_grad=True)], 'optimizer': {'state': {0: {'momentum_buffer': None}, 1: {'momentum_buffer': None}, 2: {'momentum_buffer': None}, 3: {'momentum_buffer': None}, 4: {'momentum_buffer': None}, 5: {'momentum_buffer': None}, 6:
…
tau_list [tensor([0.5432, 0.1752], device='cuda:0', requires_grad=True), tensor([ 0.0230, -0.0198], device='cuda:0', requires_grad=True)]
Previously net_list state_dict loaded...
Previously net_list state_dict loaded...
Previously net_list state_dict loaded...
Previously net_list state_dict loaded...
Previously net_list state_dict loaded...
Previously trained optimizer state_dict loaded...
Previously trained optimizer2 state_dict loaded...
Previously trained scheduler state_dict loaded...
 velocity verletx 
sample for dt traj ==== torch.Size([10, 3, 8, 128, 2])
guess t max  20.5
t thrsh ====== [0]
[pw_mlp_net(
  (layers): ModuleList(
    (0): Linear(in_features=16, out_features=128, bias=True)
    (1): Linear(in_features=128, out_features=128, bias=True)
    (2): Linear(in_features=128, out_features=128, bias=True)
    (3): Linear(in_features=128, out_features=128, bias=True)
    (4): Linear(in_features=128, out_features=2, bias=True)
  )
), pw_mlp_net(
  (layers): ModuleList(
    (0): Linear(in_features=16, out_features=128, bias=True)
    (1): Linear(in_features=128, out_features=128, bias=True)
    (2): Linear(in_features=128, out_features=128, bias=True)
    (3): Linear(in_features=128, out_features=128, bias=True)
    (4): Linear(in_features=128, out_features=2, bias=True)
  )
), mb_transformer_net(
  (feat_embedder): Linear(in_features=24, out_features=256, bias=True)
  (transformer): Sequential(
    (0): EncoderLayer(
      (norm1): LayerNorm((256,), eps=1e-05, elementwise_affine=True)
      (attn): MultiheadAttention(
        (qkv): Linear(in_features=256, out_features=768, bias=False)
        (q_norm): Identity()
        (k_norm): Identity()
        (attn_drop): Dropout(p=0.5, inplace=False)
        (proj): Linear(in_features=256, out_features=256, bias=True)
        (proj_drop): Dropout(p=0.5, inplace=False)
      )
      (norm2): LayerNorm((256,), eps=1e-05, elementwise_affine=True)
      (mlp): Sequential(
        (0): Linear(in_features=256, out_features=1024, bias=True)
        (1): GELU()
        (2): Dropout(p=0.5, inplace=False)
        (3): Linear(in_features=1024, out_features=256, bias=True)
        (4): GELU()
        (5): Dropout(p=0.5, inplace=False)
      )
    )
    (1): EncoderLayer(
      (norm1): LayerNorm((256,), eps=1e-05, elementwise_affine=True)
      (attn): MultiheadAttention(
        (qkv): Linear(in_features=256, out_features=768, bias=False)
        (q_norm): Identity()
        (k_norm): Identity()
        (attn_drop): Dropout(p=0.5, inplace=False)
        (proj): Linear(in_features=256, out_features=256, bias=True)
        (proj_drop): Dropout(p=0.5, inplace=False)
      )
      (norm2): LayerNorm((256,), eps=1e-05, elementwise_affine=True)
      (mlp): Sequential(
        (0): Linear(in_features=256, out_features=1024, bias=True)
        (1): GELU()
        (2): Dropout(p=0.5, inplace=False)
        (3): Linear(in_features=1024, out_features=256, bias=True)
        (4): GELU()
        (5): Dropout(p=0.5, inplace=False)
      )
    )
  )
  (readout): Linear(in_features=256, out_features=2, bias=True)
), mb_transformer_net(
  (feat_embedder): Linear(in_features=24, out_features=256, bias=True)
  (transformer): Sequential(
    (0): EncoderLayer(
      (norm1): LayerNorm((256,), eps=1e-05, elementwise_affine=True)
      (attn): MultiheadAttention(
        (qkv): Linear(in_features=256, out_features=768, bias=False)
        (q_norm): Identity()
        (k_norm): Identity()
        (attn_drop): Dropout(p=0.5, inplace=False)
        (proj): Linear(in_features=256, out_features=256, bias=True)
        (proj_drop): Dropout(p=0.5, inplace=False)
      )
      (norm2): LayerNorm((256,), eps=1e-05, elementwise_affine=True)
      (mlp): Sequential(
        (0): Linear(in_features=256, out_features=1024, bias=True)
        (1): GELU()
        (2): Dropout(p=0.5, inplace=False)
        (3): Linear(in_features=1024, out_features=256, bias=True)
        (4): GELU()
        (5): Dropout(p=0.5, inplace=False)
      )
    )
    (1): EncoderLayer(
      (norm1): LayerNorm((256,), eps=1e-05, elementwise_affine=True)
      (attn): MultiheadAttention(
        (qkv): Linear(in_features=256, out_features=768, bias=False)
        (q_norm): Identity()
        (k_norm): Identity()
        (attn_drop): Dropout(p=0.5, inplace=False)
        (proj): Linear(in_features=256, out_features=256, bias=True)
        (proj_drop): Dropout(p=0.5, inplace=False)
      )
      (norm2): LayerNorm((256,), eps=1e-05, elementwise_affine=True)
      (mlp): Sequential(
        (0): Linear(in_features=256, out_features=1024, bias=True)
        (1): GELU()
        (2): Dropout(p=0.5, inplace=False)
        (3): Linear(in_features=1024, out_features=256, bias=True)
        (4): GELU()
        (5): Dropout(p=0.5, inplace=False)
      )
    )
  )
  (readout): Linear(in_features=256, out_features=2, bias=True)
), pw_mlp_net(
  (layers): ModuleList(
    (0): Linear(in_features=2, out_features=128, bias=True)
    (1): Linear(in_features=128, out_features=128, bias=True)
    (2): Linear(in_features=128, out_features=128, bias=True)
    (3): Linear(in_features=128, out_features=128, bias=True)
    (4): Linear(in_features=128, out_features=2, bias=True)
  )
)] tau list len 2  opt  SGD (
Parameter Group 0
    dampening: 0
    initial_lr: 1e-05
    lr: 1e-05
    maximize: False
    momentum: 0
    nesterov: False
    weight_decay: 0
)  opt2  SGD (
Parameter Group 0
    dampening: 0
    lr: 0.01
    maximize: False
    momentum: 0
    nesterov: False
    weight_decay: 0
) sch <optimizers.DecayCosineAnnealingWarmRestarts.DecayCosineAnnealingWarmRestarts object at 0x14f288421b10>
=> loading checkpoint '../../results20230409/traj_len08nchain04tau0.1d256l2ew01repw10_dpt1800000/mbpw000131.pth'
{'net_list': [pw_mlp_net(
  (layers): ModuleList(
    (0): Linear(in_features=16, out_features=128, bias=True)
    (1): Linear(in_features=128, out_features=128, bias=True)
    (2): Linear(in_features=128, out_features=128, bias=True)
    (3): Linear(in_features=128, out_features=128, bias=True)
    (4): Linear(in_features=128, out_features=2, bias=True)
  )
), pw_mlp_net(
  (layers): ModuleList(
    (0): Linear(in_features=16, out_features=128, bias=True)
    (1): Linear(in_features=128, out_features=128, bias=True)
    (2): Linear(in_features=128, out_features=128, bias=True)
    (3): Linear(in_features=128, out_features=128, bias=True)
    (4): Linear(in_features=128, out_features=2, bias=True)
  )
), mb_transformer_net(
  (feat_embedder): Linear(in_features=24, out_features=256, bias=True)
  (transformer): Sequential(
    (0): EncoderLayer(
      (norm1): LayerNorm((256,), eps=1e-05, elementwise_affine=True)
      (attn): MultiheadAttention(
        (qkv): Linear(in_features=256, out_features=768, bias=False)
        (q_norm): Identity()
        (k_norm): Identity()
        (attn_drop): Dropout(p=0.5, inplace=False)
        (proj): Linear(in_features=256, out_features=256, bias=True)
        (proj_drop): Dropout(p=0.5, inplace=False)
      )
      (norm2): LayerNorm((256,), eps=1e-05, elementwise_affine=True)
      (mlp): Sequential(
        (0): Linear(in_features=256, out_features=1024, bias=True)
        (1): GELU()
        (2): Dropout(p=0.5, inplace=False)
        (3): Linear(in_features=1024, out_features=256, bias=True)
        (4): GELU()
        (5): Dropout(p=0.5, inplace=False)
      )
    )
    (1): EncoderLayer(
      (norm1): LayerNorm((256,), eps=1e-05, elementwise_affine=True)
      (attn): MultiheadAttention(
        (qkv): Linear(in_features=256, out_features=768, bias=False)
        (q_norm): Identity()
        (k_norm): Identity()
        (attn_drop): Dropout(p=0.5, inplace=False)
        (proj): Linear(in_features=256, out_features=256, bias=True)
        (proj_drop): Dropout(p=0.5, inplace=False)
      )
      (norm2): LayerNorm((256,), eps=1e-05, elementwise_affine=True)
      (mlp): Sequential(
        (0): Linear(in_features=256, out_features=1024, bias=True)
        (1): GELU()
        (2): Dropout(p=0.5, inplace=False)
        (3): Linear(in_features=1024, out_features=256, bias=True)
        (4): GELU()
        (5): Dropout(p=0.5, inplace=False)
      )
    )
  )
  (readout): Linear(in_features=256, out_features=2, bias=True)
), mb_transformer_net(
  (feat_embedder): Linear(in_features=24, out_features=256, bias=True)
  (transformer): Sequential(
    (0): EncoderLayer(
      (norm1): LayerNorm((256,), eps=1e-05, elementwise_affine=True)
      (attn): MultiheadAttention(
        (qkv): Linear(in_features=256, out_features=768, bias=False)
        (q_norm): Identity()
        (k_norm): Identity()
        (attn_drop): Dropout(p=0.5, inplace=False)
        (proj): Linear(in_features=256, out_features=256, bias=True)
        (proj_drop): Dropout(p=0.5, inplace=False)
      )
      (norm2): LayerNorm((256,), eps=1e-05, elementwise_affine=True)
      (mlp): Sequential(
        (0): Linear(in_features=256, out_features=1024, bias=True)
        (1): GELU()
        (2): Dropout(p=0.5, inplace=False)
        (3): Linear(in_features=1024, out_features=256, bias=True)
        (4): GELU()
        (5): Dropout(p=0.5, inplace=False)
      )
    )
    (1): EncoderLayer(
      (norm1): LayerNorm((256,), eps=1e-05, elementwise_affine=True)
      (attn): MultiheadAttention(
        (qkv): Linear(in_features=256, out_features=768, bias=False)
        (q_norm): Identity()
        (k_norm): Identity()
        (attn_drop): Dropout(p=0.5, inplace=False)
        (proj): Linear(in_features=256, out_features=256, bias=True)
        (proj_drop): Dropout(p=0.5, inplace=False)
      )
      (norm2): LayerNorm((256,), eps=1e-05, elementwise_affine=True)
      (mlp): Sequential(
        (0): Linear(in_features=256, out_features=1024, bias=True)
        (1): GELU()
        (2): Dropout(p=0.5, inplace=False)
        (3): Linear(in_features=1024, out_features=256, bias=True)
        (4): GELU()
        (5): Dropout(p=0.5, inplace=False)
      )
    )
  )
  (readout): Linear(in_features=256, out_features=2, bias=True)
), pw_mlp_net(
  (layers): ModuleList(
    (0): Linear(in_features=2, out_features=128, bias=True)
    (1): Linear(in_features=128, out_features=128, bias=True)
    (2): Linear(in_features=128, out_features=128, bias=True)
    (3): Linear(in_features=128, out_features=128, bias=True)
    (4): Linear(in_features=128, out_features=2, bias=True)
  )
)], 'tau_list': [tensor([-28.8326,   0.2207], device='cuda:0', requires_grad=True), tensor([0.0005, 0.0510], device='cuda:0', requires_grad=True)], 'optimizer': {'state': {0: {'momentum_buffer': None}, 1: {'momentum_buffer': None}, 2: {'momentum_buffer': None}, 3: {'momentum_buffer': None}, 4: {'momentum_buffer': None}, 5: {'momentum_buffer': None}, 
…
