…
phase_space initialized
check4particle_hard_crash initialized : rthrsh 0.7259  pthrsh  5.7994 ethrsh  193.1625008229323 dhdqthrsh  -2863.195744548219
linear_integrator initialized 
MLP_net initialized :  5 -> ... -> 64 -> 2
MLP_net initialized :  5 -> ... -> 64 -> 2
hamiltonian initialized
LJ_term initialized : sigma  1  epsilon  1
lennard_jones.py call potential
pb initialized
phase_space initialized
lennard_jones initialized: sigma  1  epsilon  1
kinetic_energy initialized : mass  1
HNN_base initialized
pairwise_HNN initialized 
checkpoint initialized : net list  [mlp_net(
  (layers): ModuleList(
    (0): Linear(in_features=5, out_features=64, bias=True)
    (1): Tanh()
    (2): Linear(in_features=64, out_features=64, bias=True)
    (3): Tanh()
    (4): Dropout(p=0, inplace=False)
    (5): Linear(in_features=64, out_features=2, bias=True)
  )
), mlp_net(
  (layers): ModuleList(
    (0): Linear(in_features=5, out_features=64, bias=True)
    (1): Tanh()
    (2): Linear(in_features=64, out_features=64, bias=True)
    (3): Tanh()
    (4): Dropout(p=0, inplace=False)
    (5): Linear(in_features=64, out_features=2, bias=True)
  )
)]  opt  None sch None
=> loading checkpoint '../data/gen_by_ML/pw-auto-lambda0.0l2reg/4rho0.20/backward_47/backward_47_5.pth'
{'net_list': [mlp_net(
  (layers): ModuleList(
    (0): Linear(in_features=5, out_features=64, bias=True)
    (1): Tanh()
    (2): Linear(in_features=64, out_features=64, bias=True)
    (3): Tanh()
    (4): Dropout(p=0, inplace=False)
    (5): Linear(in_features=64, out_features=2, bias=True)
  )
), mlp_net(
  (layers): ModuleList(
    (0): Linear(in_features=5, out_features=64, bias=True)
    (1): Tanh()
    (2): Linear(in_features=64, out_features=64, bias=True)
    (3): Tanh()
    (4): Dropout(p=0, inplace=False)
    (5): Linear(in_features=64, out_features=2, bias=True)
  )
)], 'optimizer': {'state': {}, 'param_groups': [{'lr': 0.0008858423808639998, 'momentum': 0, 'dampening': 0, 'weight_decay': 0, 'nesterov': False, 'initial_lr': 0.001, 'params': [0, 1, 2, 3, 4, 5, 6, 7, 8, 9, 10, 11]}]}, 'scheduler': {'step_size': 500, 'gamma': 0.98, 'base_lrs': [0.001], 'last_epoch': 3280, '_step_count': 3281, 'verbose': False, '_get_lr_called_within_step': False, '_last_lr': [0.0008858423808639998]}}
…
