…
lennard_jones.py call potential
pb initialized
phase_space initialized
lennard_jones initialized: sigma  1  epsilon  1
kinetic_energy initialized : mass  1
HNN_base initialized
pairwise_HNN initialized 
my_data initialized : train_filename  ../data/gen_by_MD/train/n16rho0.1lt0.1nsamples24000_shuffle.pt  val_filename  ../data/gen_by_MD/valid/n16rho0.1lt0.1nsamples4800_shuffle.pt  test_filename  ../data/gen_by_MD/valid/n16rho0.1lt0.1nsamples4800_shuffle.pt  train_pts  100  val_pts  100  test_pts  100
kwargs  {}
created  SGD  with lr  0.001
checkpoint initialized : net list  [mlp_net(
  (layers): ModuleList(
    (0): Linear(in_features=5, out_features=128, bias=True)
    (1): Tanh()
    (2): Linear(in_features=128, out_features=64, bias=True)
    (3): Tanh()
    (4): Dropout(p=0, inplace=False)
    (5): Linear(in_features=64, out_features=128, bias=True)
    (6): Tanh()
    (7): Dropout(p=0, inplace=False)
    (8): Linear(in_features=128, out_features=2, bias=True)
  )
), mlp_net(
  (layers): ModuleList(
    (0): Linear(in_features=5, out_features=128, bias=True)
    (1): Tanh()
    (2): Linear(in_features=128, out_features=64, bias=True)
    (3): Tanh()
    (4): Dropout(p=0, inplace=False)
    (5): Linear(in_features=64, out_features=128, bias=True)
    (6): Tanh()
    (7): Dropout(p=0, inplace=False)
    (8): Linear(in_features=128, out_features=2, bias=True)
  )
)]  opt  SGD (
Parameter Group 0
    dampening: 0
    initial_lr: 0.001
    lr: 0.001
    momentum: 0
    nesterov: False
    weight_decay: 0
) sch <torch.optim.lr_scheduler.StepLR object at 0x7f63402b6790>
MD_learner initialized : tau_cur  0.1  boxsize  12.649110640673518 pothrsh 159.5294604629323 Lambda 0.01 clip value 10.0
batch iter 0  reg_loss tensor(0., grad_fn=<ReluBackward0>)
…
lennard_jones.py call potential
pb initialized
phase_space initialized
lennard_jones initialized: sigma  1  epsilon  1
kinetic_energy initialized : mass  1
HNN_base initialized
pairwise_HNN initialized 
my_data initialized : train_filename  ../data/gen_by_MD/train/n16rho0.14lt0.1nsamples24000_shuffle.pt  val_filename  ../data/gen_by_MD/valid/n16rho0.14lt0.1nsamples4800_shuffle.pt  test_filename  ../data/gen_by_MD/valid/n16rho0.14lt0.1nsamples4800_shuffle.pt  train_pts  100  val_pts  100  test_pts  100
kwargs  {}
created  SGD  with lr  0.001
checkpoint initialized : net list  [mlp_net(
  (layers): ModuleList(
    (0): Linear(in_features=5, out_features=128, bias=True)
    (1): Tanh()
    (2): Linear(in_features=128, out_features=64, bias=True)
    (3): Tanh()
    (4): Dropout(p=0, inplace=False)
    (5): Linear(in_features=64, out_features=128, bias=True)
    (6): Tanh()
    (7): Dropout(p=0, inplace=False)
    (8): Linear(in_features=128, out_features=2, bias=True)
  )
), mlp_net(
  (layers): ModuleList(
    (0): Linear(in_features=5, out_features=128, bias=True)
    (1): Tanh()
    (2): Linear(in_features=128, out_features=64, bias=True)
    (3): Tanh()
    (4): Dropout(p=0, inplace=False)
    (5): Linear(in_features=64, out_features=128, bias=True)
    (6): Tanh()
    (7): Dropout(p=0, inplace=False)
    (8): Linear(in_features=128, out_features=2, bias=True)
  )
)]  opt  SGD (
Parameter Group 0
    dampening: 0
    initial_lr: 0.001
    lr: 0.001
    momentum: 0
    nesterov: False
    weight_decay: 0
) sch <torch.optim.lr_scheduler.StepLR object at 0x7f448cc04190>
=> loading checkpoint '../data/gen_by_ML/pw-auto-test/1rho0.10/1rho0.10_5.pth'
{'net_list': [mlp_net(
  (layers): ModuleList(
    (0): Linear(in_features=5, out_features=128, bias=True)
    (1): Tanh()
    (2): Linear(in_features=128, out_features=64, bias=True)
    (3): Tanh()
    (4): Dropout(p=0, inplace=False)
    (5): Linear(in_features=64, out_features=128, bias=True)
    (6): Tanh()
    (7): Dropout(p=0, inplace=False)
    (8): Linear(in_features=128, out_features=2, bias=True)
  )
), mlp_net(
  (layers): ModuleList(
    (0): Linear(in_features=5, out_features=128, bias=True)
    (1): Tanh()
    (2): Linear(in_features=128, out_features=64, bias=True)
    (3): Tanh()
    (4): Dropout(p=0, inplace=False)
    (5): Linear(in_features=64, out_features=128, bias=True)
    (6): Tanh()
    (7): Dropout(p=0, inplace=False)
    (8): Linear(in_features=128, out_features=2, bias=True)
  )
)], 'optimizer': {'state': {}, 'param_groups': [{'lr': 0.001, 'momentum': 0, 'dampening': 0, 'weight_decay': 0, 'nesterov': False, 'initial_lr': 0.001, 'params': [0, 1, 2, 3, 4, 5, 6, 7, 8, 9, 10, 11, 12, 13, 14, 15]}]}, 'scheduler': {'step_size': 60, 'gamma': 0.98, 'base_lrs': [0.001], 'last_epoch': 5, '_step_count': 6, 'verbose': False, '_get_lr_called_within_step': False, '_last_lr': [0.001]}}
…
