…
single particle net type transformer ..........
!!!!! single par transformer_net 192 256 8 6
!!!!! single par transformer_net 192 256 8 6
multi particle net type gnn identity..........
!!!!! multi par graph net  256 256 0
!!!!! multi par graph net  256 256 0
update step net type mlp ..........
!!!!! update step mlp_net 256 2 128 0.5
!!!!! update step mlp_net 256 2 128 0.5
 velocity verletx 
loss initialized: rthrsh 0.7 pethrsh 288.990 e weight 1 reg weight 10 reg weight2 0.01
checkpoint initialized : net  LLUF_MD(
  (prepare_data): PrepareData(
    (net): PWNet(
      (layers): ModuleList(
        (0): Linear(in_features=1, out_features=128, bias=True)
        (1): Linear(in_features=128, out_features=128, bias=True)
        (2): Linear(in_features=128, out_features=128, bias=True)
        (3): Linear(in_features=128, out_features=128, bias=True)
        (4): Linear(in_features=128, out_features=2, bias=True)
      )
    )
  )
  (LLUF_update_p): HalfStepUpdate(
    (prepare_data): PrepareData(
      (net): PWNet(
        (layers): ModuleList(
          (0): Linear(in_features=1, out_features=128, bias=True)
          (1): Linear(in_features=128, out_features=128, bias=True)
          (2): Linear(in_features=128, out_features=128, bias=True)
          (3): Linear(in_features=128, out_features=128, bias=True)
          (4): Linear(in_features=128, out_features=2, bias=True)
        )
      )
    )
    (single_par): SingleParticle(
      (net): SingleParticleTransformerNet(
        (feat_embedder): Linear(in_features=24, out_features=256, bias=True)
        (transformer): Sequential(
          (0): EncoderLayer(
            (norm1): LayerNorm((256,), eps=1e-05, elementwise_affine=True)
            (attn): MultiheadAttention(
              (qkv): Linear(in_features=256, out_features=768, bias=False)
              (q_norm): Identity()
              (k_norm): Identity()
              (attn_drop): Dropout(p=0.5, inplace=False)
              (proj): Linear(in_features=256, out_features=256, bias=True)
              (proj_drop): Dropout(p=0.5, inplace=False)
            )
            (norm2): LayerNorm((256,), eps=1e-05, elementwise_affine=True)
            (mlp): Sequential(
              (0): Linear(in_features=256, out_features=1024, bias=True)
              (1): GELU()
              (2): Dropout(p=0.5, inplace=False)
              (3): Linear(in_features=1024, out_features=256, bias=True)
              (4): GELU()
              (5): Dropout(p=0.5, inplace=False)
            )
          )
          (1): EncoderLayer(
            (norm1): LayerNorm((256,), eps=1e-05, elementwise_affine=True)
            (attn): MultiheadAttention(
              (qkv): Linear(in_features=256, out_features=768, bias=False)
              (q_norm): Identity()
              (k_norm): Identity()
              (attn_drop): Dropout(p=0.5, inplace=False)
              (proj): Linear(in_features=256, out_features=256, bias=True)
              (proj_drop): Dropout(p=0.5, inplace=False)
            )
            (norm2): LayerNorm((256,), eps=1e-05, elementwise_affine=True)
            (mlp): Sequential(
              (0): Linear(in_features=256, out_features=1024, bias=True)
              (1): GELU()
              (2): Dropout(p=0.5, inplace=False)
              (3): Linear(in_features=1024, out_features=256, bias=True)
              (4): GELU()
              (5): Dropout(p=0.5, inplace=False)
            )
          )
        )
      )
    )
    (multi_par): MultiParticles(
      (net): MultiParticlesGraphNet(
        (gcl_0): Identity()
      )
    )
    (update_step): ReadoutStep(
      (net): ReadoutStepMLPNet(
        (mlp): Sequential(
          (0): Linear(in_features=256, out_features=128, bias=True)
          (1): Dropout(p=0.5, inplace=False)
          (2): Linear(in_features=128, out_features=128, bias=True)
          (3): Dropout(p=0.5, inplace=False)
          (4): Linear(in_features=128, out_features=2, bias=True)
          (5): Tanh()
        )
      )
    )
  )
  (LLUF_update_q): HalfStepUpdate(
    (prepare_data): PrepareData(
      (net): PWNet(
        (layers): ModuleList(
          (0): Linear(in_features=1, out_features=128, bias=True)
          (1): Linear(in_features=128, out_features=128, bias=True)
          (2): Linear(in_features=128, out_features=128, bias=True)
          (3): Linear(in_features=128, out_features=128, bias=True)
          (4): Linear(in_features=128, out_features=2, bias=True)
        )
      )
    )
    (single_par): SingleParticle(
      (net): SingleParticleTransformerNet(
        (feat_embedder): Linear(in_features=24, out_features=256, bias=True)
        (transformer): Sequential(
          (0): EncoderLayer(
            (norm1): LayerNorm((256,), eps=1e-05, elementwise_affine=True)
            (attn): MultiheadAttention(
              (qkv): Linear(in_features=256, out_features=768, bias=False)
              (q_norm): Identity()
              (k_norm): Identity()
              (attn_drop): Dropout(p=0.5, inplace=False)
              (proj): Linear(in_features=256, out_features=256, bias=True)
              (proj_drop): Dropout(p=0.5, inplace=False)
            )
            (norm2): LayerNorm((256,), eps=1e-05, elementwise_affine=True)
            (mlp): Sequential(
              (0): Linear(in_features=256, out_features=1024, bias=True)
              (1): GELU()
              (2): Dropout(p=0.5, inplace=False)
              (3): Linear(in_features=1024, out_features=256, bias=True)
              (4): GELU()
              (5): Dropout(p=0.5, inplace=False)
            )
          )
          (1): EncoderLayer(
            (norm1): LayerNorm((256,), eps=1e-05, elementwise_affine=True)
            (attn): MultiheadAttention(
              (qkv): Linear(in_features=256, out_features=768, bias=False)
              (q_norm): Identity()
              (k_norm): Identity()
              (attn_drop): Dropout(p=0.5, inplace=False)
              (proj): Linear(in_features=256, out_features=256, bias=True)
              (proj_drop): Dropout(p=0.5, inplace=False)
            )
            (norm2): LayerNorm((256,), eps=1e-05, elementwise_affine=True)
            (mlp): Sequential(
              (0): Linear(in_features=256, out_features=1024, bias=True)
              (1): GELU()
              (2): Dropout(p=0.5, inplace=False)
              (3): Linear(in_features=1024, out_features=256, bias=True)
              (4): GELU()
              (5): Dropout(p=0.5, inplace=False)
            )
          )
        )
      )
    )
    (multi_par): MultiParticles(
      (net): MultiParticlesGraphNet(
        (gcl_0): Identity()
      )
    )
    (update_step): ReadoutStep(
      (net): ReadoutStepMLPNet(
        (mlp): Sequential(
          (0): Linear(in_features=256, out_features=128, bias=True)
          (1): Dropout(p=0.5, inplace=False)
          (2): Linear(in_features=128, out_features=128, bias=True)
          (3): Dropout(p=0.5, inplace=False)
          (4): Linear(in_features=128, out_features=2, bias=True)
          (5): Tanh()
        )
      )
    )
  )
) opt  SGD (
Parameter Group 0
    dampening: 0
    lr: 1e-05
    maximize: False
    momentum: 0
    nesterov: False
    weight_decay: 0
)
begin ------- initial learning configurations -------- 
0 init_config tau 0 : 1.451889e-01 tau 1 : 9.497871e-01 tau 2 : 9.719501e-01
tau grad is None before gradient
empty list: key  total  value  []
…
