…
reg_weight : 0

data dict ============== 
train_file : ../../Data/LLUF/300k_gap10_train.pt
valid_file : ../../Data/LLUF/300k_gap10_valid.pt
test_file : ../../Data/LLUF/300k_gap10_valid.pt
train_pts : 4
valid_pts : 4
test_pts : 200
batch_size : 4
window_sliding : 1

main dict ============== 
start_epoch : 0
end_epoch : 1000
save_dir : ../../SavedModel/LLUF/gap10_b0.01_n128-128-128_d256
tau_short : 0.0001
nitr : 1000
append_strike : 1000
ckpt_interval : 1
val_interval : 1
verb : 1

checkpoint initialized : net LLUF_Lengavin(
  (prepare_data): PrepareData(
    (net): PWNet3DH2O(
      (first_layer): Conv1d(8, 1024, kernel_size=(1,), stride=(1,), groups=8)
      (convs): ModuleList(
        (0): Conv1d(1024, 128, kernel_size=(1,), stride=(1,))
        (1): Conv1d(128, 128, kernel_size=(1,), stride=(1,))
        (2): Conv1d(128, 3, kernel_size=(1,), stride=(1,))
      )
    )
  )
  (LLUF_update_p): HalfStepUpdate(
    (prepare_data): PrepareData(
      (net): PWNet3DH2O(
        (first_layer): Conv1d(8, 1024, kernel_size=(1,), stride=(1,), groups=8)
        (convs): ModuleList(
          (0): Conv1d(1024, 128, kernel_size=(1,), stride=(1,))
          (1): Conv1d(128, 128, kernel_size=(1,), stride=(1,))
          (2): Conv1d(128, 3, kernel_size=(1,), stride=(1,))
        )
      )
    )
    (single_par): SingleParticle(
      (net): SingleParticleTransformerNet(
        (feat_embedder): Linear(in_features=72, out_features=256, bias=True)
        (transformer): Sequential(
          (0): EncoderLayer(
            (norm1): LayerNorm((256,), eps=1e-05, elementwise_affine=True)
            (attn): MultiheadAttention(
              (qkv): Linear(in_features=256, out_features=768, bias=False)
              (q_norm): Identity()
              (k_norm): Identity()
              (attn_drop): Dropout(p=0.0, inplace=False)
              (proj): Linear(in_features=256, out_features=256, bias=True)
              (proj_drop): Dropout(p=0.0, inplace=False)
            )
            (norm2): LayerNorm((256,), eps=1e-05, elementwise_affine=True)
            (mlp): Sequential(
              (0): Linear(in_features=256, out_features=1024, bias=True)
              (1): GELU(approximate='none')
              (2): Dropout(p=0.0, inplace=False)
              (3): Linear(in_features=1024, out_features=256, bias=True)
              (4): GELU(approximate='none')
              (5): Dropout(p=0.0, inplace=False)
            )
          )
          (1): EncoderLayer(
            (norm1): LayerNorm((256,), eps=1e-05, elementwise_affine=True)
            (attn): MultiheadAttention(
              (qkv): Linear(in_features=256, out_features=768, bias=False)
              (q_norm): Identity()
              (k_norm): Identity()
              (attn_drop): Dropout(p=0.0, inplace=False)
              (proj): Linear(in_features=256, out_features=256, bias=True)
              (proj_drop): Dropout(p=0.0, inplace=False)
            )
            (norm2): LayerNorm((256,), eps=1e-05, elementwise_affine=True)
            (mlp): Sequential(
              (0): Linear(in_features=256, out_features=1024, bias=True)
              (1): GELU(approximate='none')
              (2): Dropout(p=0.0, inplace=False)
              (3): Linear(in_features=1024, out_features=256, bias=True)
              (4): GELU(approximate='none')
              (5): Dropout(p=0.0, inplace=False)
            )
          )
        )
      )
    )
    (multi_par): MultiParticles(
      (net): MultiParticlesGraphNet(
        (gcl_0): Identity()
      )
    )
    (update_step): ReadoutStep(
      (net): ReadoutStepMLPNet(
        (mlp): Sequential(
          (0): Linear(in_features=256, out_features=128, bias=True)
          (1): Dropout(p=0.0, inplace=False)
          (2): Linear(in_features=128, out_features=128, bias=True)
          (3): Dropout(p=0.0, inplace=False)
          (4): Linear(in_features=128, out_features=3, bias=True)
          (5): Tanh()
        )
      )
    )
  )
  (LLUF_update_q): HalfStepUpdate(
    (prepare_data): PrepareData(
      (net): PWNet3DH2O(
        (first_layer): Conv1d(8, 1024, kernel_size=(1,), stride=(1,), groups=8)
        (convs): ModuleList(
          (0): Conv1d(1024, 128, kernel_size=(1,), stride=(1,))
          (1): Conv1d(128, 128, kernel_size=(1,), stride=(1,))
          (2): Conv1d(128, 3, kernel_size=(1,), stride=(1,))
        )
      )
    )
    (single_par): SingleParticle(
      (net): SingleParticleTransformerNet(
        (feat_embedder): Linear(in_features=72, out_features=256, bias=True)
        (transformer): Sequential(
          (0): EncoderLayer(
            (norm1): LayerNorm((256,), eps=1e-05, elementwise_affine=True)
            (attn): MultiheadAttention(
              (qkv): Linear(in_features=256, out_features=768, bias=False)
              (q_norm): Identity()
              (k_norm): Identity()
              (attn_drop): Dropout(p=0.0, inplace=False)
              (proj): Linear(in_features=256, out_features=256, bias=True)
              (proj_drop): Dropout(p=0.0, inplace=False)
            )
            (norm2): LayerNorm((256,), eps=1e-05, elementwise_affine=True)
            (mlp): Sequential(
              (0): Linear(in_features=256, out_features=1024, bias=True)
              (1): GELU(approximate='none')
              (2): Dropout(p=0.0, inplace=False)
              (3): Linear(in_features=1024, out_features=256, bias=True)
              (4): GELU(approximate='none')
              (5): Dropout(p=0.0, inplace=False)
            )
          )
          (1): EncoderLayer(
            (norm1): LayerNorm((256,), eps=1e-05, elementwise_affine=True)
            (attn): MultiheadAttention(
              (qkv): Linear(in_features=256, out_features=768, bias=False)
              (q_norm): Identity()
              (k_norm): Identity()
              (attn_drop): Dropout(p=0.0, inplace=False)
              (proj): Linear(in_features=256, out_features=256, bias=True)
              (proj_drop): Dropout(p=0.0, inplace=False)
            )
            (norm2): LayerNorm((256,), eps=1e-05, elementwise_affine=True)
            (mlp): Sequential(
              (0): Linear(in_features=256, out_features=1024, bias=True)
              (1): GELU(approximate='none')
              (2): Dropout(p=0.0, inplace=False)
              (3): Linear(in_features=1024, out_features=256, bias=True)
              (4): GELU(approximate='none')
              (5): Dropout(p=0.0, inplace=False)
            )
          )
        )
      )
    )
    (multi_par): MultiParticles(
      (net): MultiParticlesGraphNet(
        (gcl_0): Identity()
      )
    )
    (update_step): ReadoutStep(
      (net): ReadoutStepMLPNet(
        (mlp): Sequential(
          (0): Linear(in_features=256, out_features=128, bias=True)
          (1): Dropout(p=0.0, inplace=False)
          (2): Linear(in_features=128, out_features=128, bias=True)
          (3): Dropout(p=0.0, inplace=False)
          (4): Linear(in_features=128, out_features=3, bias=True)
          (5): Tanh()
        )
      )
    )
  )
) opt Adam (
Parameter Group 0
    amsgrad: False
    betas: (0.9, 0.999)
    capturable: False
    differentiable: False
    eps: 1e-08
    foreach: None
    fused: None
    lr: 1e-05
    maximize: False
    weight_decay: 0
)

 init_config 0 lr 1.00e-05 total nan
 init_config 0 lr 1.00e-05 *qrmse nan -qmse nan -qmae nan
…
