…
!!!!! single par transformer_net 576 512 6 8 12
multi particle net type gnn identity..........
!!!!! multi par graph net  512 512 0 attention False
!!!!! multi par graph net  512 512 0 attention False
readout step net type mlp ..........
!!!!! update step mlp_net 512 3 128 0.0
!!!!! update step mlp_net 512 3 128 0.0
create isocahedron object ....
 velocity verletx 
optim given .... adam ....
loss weight .... [1]...
loss initialized: rthrsh 0.7 pethrsh 288.990 e weight 0 reg weight 0 reg weight2 0.01 weight len 1
checkpoint initialized : net  LLUF_Lengavin(
  (prepare_data): PrepareData(
    (net): PWNet3DH2O(
      (first_layer): Conv1d(8, 1024, kernel_size=(1,), stride=(1,), groups=8)
      (convs): ModuleList(
        (0): Conv1d(1024, 128, kernel_size=(1,), stride=(1,))
        (1-2): 2 x Conv1d(128, 128, kernel_size=(1,), stride=(1,))
        (3): Conv1d(128, 3, kernel_size=(1,), stride=(1,))
      )
    )
  )
  (LLUF_update_p): HalfStepUpdate(
    (prepare_data): PrepareData(
      (net): PWNet3DH2O(
        (first_layer): Conv1d(8, 1024, kernel_size=(1,), stride=(1,), groups=8)
        (convs): ModuleList(
          (0): Conv1d(1024, 128, kernel_size=(1,), stride=(1,))
          (1-2): 2 x Conv1d(128, 128, kernel_size=(1,), stride=(1,))
          (3): Conv1d(128, 3, kernel_size=(1,), stride=(1,))
        )
      )
    )
    (single_par): SingleParticle(
      (net): SingleParticleTransformerNet(
        (feat_embedder): Linear(in_features=72, out_features=512, bias=True)
        (transformer): Sequential(
          (0): EncoderLayer(
            (norm1): LayerNorm((512,), eps=1e-05, elementwise_affine=True)
            (attn): MultiheadAttention(
              (qkv): Linear(in_features=512, out_features=1536, bias=False)
              (q_norm): Identity()
              (k_norm): Identity()
              (attn_drop): Dropout(p=0.0, inplace=False)
              (proj): Linear(in_features=512, out_features=512, bias=True)
              (proj_drop): Dropout(p=0.0, inplace=False)
            )
            (norm2): LayerNorm((512,), eps=1e-05, elementwise_affine=True)
            (mlp): Sequential(
              (0): Linear(in_features=512, out_features=2048, bias=True)
              (1): GELU(approximate='none')
              (2): Dropout(p=0.0, inplace=False)
              (3): Linear(in_features=2048, out_features=512, bias=True)
              (4): GELU(approximate='none')
              (5): Dropout(p=0.0, inplace=False)
            )
          )
          (1): EncoderLayer(
            (norm1): LayerNorm((512,), eps=1e-05, elementwise_affine=True)
            (attn): MultiheadAttention(
              (qkv): Linear(in_features=512, out_features=1536, bias=False)
              (q_norm): Identity()
              (k_norm): Identity()
              (attn_drop): Dropout(p=0.0, inplace=False)
              (proj): Linear(in_features=512, out_features=512, bias=True)
              (proj_drop): Dropout(p=0.0, inplace=False)
            )
            (norm2): LayerNorm((512,), eps=1e-05, elementwise_affine=True)
            (mlp): Sequential(
              (0): Linear(in_features=512, out_features=2048, bias=True)
              (1): GELU(approximate='none')
              (2): Dropout(p=0.0, inplace=False)
              (3): Linear(in_features=2048, out_features=512, bias=True)
              (4): GELU(approximate='none')
              (5): Dropout(p=0.0, inplace=False)
            )
          )
        )
      )
    )
    (multi_par): MultiParticles(
      (net): MultiParticlesGraphNet(
        (gcl_0): Identity()
      )
    )
    (update_step): ReadoutStep(
      (net): ReadoutStepMLPNet(
        (mlp): Sequential(
          (0): Linear(in_features=512, out_features=128, bias=True)
          (1): Dropout(p=0.0, inplace=False)
          (2): Linear(in_features=128, out_features=128, bias=True)
          (3): Dropout(p=0.0, inplace=False)
          (4): Linear(in_features=128, out_features=3, bias=True)
          (5): Tanh()
        )
      )
    )
  )
  (LLUF_update_q): HalfStepUpdate(
    (prepare_data): PrepareData(
      (net): PWNet3DH2O(
        (first_layer): Conv1d(8, 1024, kernel_size=(1,), stride=(1,), groups=8)
        (convs): ModuleList(
          (0): Conv1d(1024, 128, kernel_size=(1,), stride=(1,))
          (1-2): 2 x Conv1d(128, 128, kernel_size=(1,), stride=(1,))
          (3): Conv1d(128, 3, kernel_size=(1,), stride=(1,))
        )
      )
    )
    (single_par): SingleParticle(
      (net): SingleParticleTransformerNet(
        (feat_embedder): Linear(in_features=72, out_features=512, bias=True)
        (transformer): Sequential(
          (0): EncoderLayer(
            (norm1): LayerNorm((512,), eps=1e-05, elementwise_affine=True)
            (attn): MultiheadAttention(
              (qkv): Linear(in_features=512, out_features=1536, bias=False)
              (q_norm): Identity()
              (k_norm): Identity()
              (attn_drop): Dropout(p=0.0, inplace=False)
              (proj): Linear(in_features=512, out_features=512, bias=True)
              (proj_drop): Dropout(p=0.0, inplace=False)
            )
            (norm2): LayerNorm((512,), eps=1e-05, elementwise_affine=True)
            (mlp): Sequential(
              (0): Linear(in_features=512, out_features=2048, bias=True)
              (1): GELU(approximate='none')
              (2): Dropout(p=0.0, inplace=False)
              (3): Linear(in_features=2048, out_features=512, bias=True)
              (4): GELU(approximate='none')
              (5): Dropout(p=0.0, inplace=False)
            )
          )
          (1): EncoderLayer(
            (norm1): LayerNorm((512,), eps=1e-05, elementwise_affine=True)
            (attn): MultiheadAttention(
              (qkv): Linear(in_features=512, out_features=1536, bias=False)
              (q_norm): Identity()
              (k_norm): Identity()
              (attn_drop): Dropout(p=0.0, inplace=False)
              (proj): Linear(in_features=512, out_features=512, bias=True)
              (proj_drop): Dropout(p=0.0, inplace=False)
            )
            (norm2): LayerNorm((512,), eps=1e-05, elementwise_affine=True)
            (mlp): Sequential(
              (0): Linear(in_features=512, out_features=2048, bias=True)
              (1): GELU(approximate='none')
              (2): Dropout(p=0.0, inplace=False)
              (3): Linear(in_features=2048, out_features=512, bias=True)
              (4): GELU(approximate='none')
              (5): Dropout(p=0.0, inplace=False)
            )
          )
        )
      )
    )
    (multi_par): MultiParticles(
      (net): MultiParticlesGraphNet(
        (gcl_0): Identity()
      )
    )
    (update_step): ReadoutStep(
      (net): ReadoutStepMLPNet(
        (mlp): Sequential(
          (0): Linear(in_features=512, out_features=128, bias=True)
          (1): Dropout(p=0.0, inplace=False)
          (2): Linear(in_features=128, out_features=128, bias=True)
          (3): Dropout(p=0.0, inplace=False)
          (4): Linear(in_features=128, out_features=3, bias=True)
          (5): Tanh()
        )
      )
    )
  )
) opt  Adam (
Parameter Group 0
    amsgrad: False
    betas: (0.9, 0.999)
    capturable: False
    decoupled_weight_decay: False
    differentiable: False
    eps: 1e-08
    foreach: None
    fused: None
    lr: 1e-05
    maximize: False
    weight_decay: 0
)
begin ------- initial learning configurations -------- 
…
